backend/dkn_model.pt (torch, 46030 bytes, 13 tensors)

net.0.weight f4 [128, 4]
0.37403423 0.4257252 -0.10817661 0.46323323 -0.11721217 0.09297239 -0.2511867 0.28591147
0.43603542 -0.37653306 0.42467353 0.085820965 0.377695 0.059248526 0.23320596 -0.07746959
0.37651753 0.08148495 -0.22444023 0.13604309 -0.23491631 -0.063059784 -0.2083082 0.32680094
-0.3845074 -0.2278164 -0.14560713 -0.3102963 0.057295483 -0.49820232 0.44460753 -0.43062603
0.39443985 0.093068086 -0.16319053 0.3004092 0.078190416 0.40352273 0.05781574 -0.1581184
0.14147922 -0.12736082 0.21830656 0.43917617 0.28514364 -0.22750676 0.27894866 0.087619975
0.2630337 -0.29724556 -0.48603922 -0.19739212 -0.38103417 0.41520256 0.14644988 0.19764516
0.16652596 -0.0024529453 0.3976014 -0.3481324 0.028704481 -0.3405765 0.1531477 -0.17803396
0.148233 -0.10614539 0.4098734 -0.30176404 -0.29385862 -0.29442683 0.45380458 0.17067721
0.47236794 -0.4209601 -0.50417715 -0.38796905 -0.3263519 0.21018022 0.18947197 0.41127607
-0.2608463 -0.33866006 0.2690196 -0.19803026 0.3116077 -0.10924667 0.29491988 -0.38017926
-0.24881397 0.15659066 0.110097244 -0.1219633 0.30666927 0.35034528 -0.35265002 -0.25671464
0.45195067 -0.17513019 -0.18311845 -0.4892333 -0.29268965 0.11944858 -0.07098815 -0.3569935
0.018855065 -0.33225173 -0.41994658 -0.2810324 -0.44257852 -0.3232108 0.4947891 0.09030507
0.16182521 -0.46954602 -0.3187508 -0.16184668 0.07115278 -0.44729212 -0.216214 -0.29233456
0.007390298 -0.18348771 -0.02931968 -0.34173355 -0.3430461 -0.29562443 -0.17780115 -0.39225355
0.41085145 -0.09892234 0.43922624 0.15714076 -0.41939488 0.3489452 -0.13468903 -0.19417197
-0.40586582 -0.505726 0.13572738 -0.11815974 0.20042874 -0.4110834 0.3689099 -0.35980436
-0.081262924 0.112797886 0.2603377 0.40037996 0.4564509 -0.39559403 0.12733278 -0.21352322
-0.06071617 -0.37714344 0.4537133 -0.36375841 0.26825547 0.18342397 0.17113315 -0.26276356
0.46140945 0.118298575 0.07204367 -0.43316087 0.20720032 -0.0800172 -0.2324197 0.42420372
0.12098107 -0.26708803 -0.24371125 -0.0316543 0.28851458 -0.11810095 -0.27585116 -0.16493896
-0.377651 0.17481183 0.38620582 -0.47024605 0.12266833 0.2650756 0.09471477 -0.17049347
0.25044447 0.26699343 0.18999174 -0.09337248 -0.1234468 0.058944415 -0.08249903 -0.15825176
0.31041998 0.43200818 -0.048549652 -0.12012386 0.009000744 -0.025191443 0.124892056 0.1363634
-0.4621127 -0.19258113 0.4130211 0.18686165 -0.015537881 -0.2930647 -0.29681635 -0.45680612
-0.15832913 0.1769355 0.32841828 0.22057673 -0.44787973 -0.31010696 -0.087910466 0.47452328
0.068165265 -0.13452105 0.2014286 -0.19559687 -0.31423843 0.3707203 -0.23042889 -0.1099931
-0.4888089 0.34331048 0.38648784 0.1909517 -0.34840697 -0.4949485 -0.40984887 0.37055948
0.23999403 0.4133148 0.26717505 0.13618372 0.0019105949 -0.37617806 -0.42128 -0.47389778
0.19717252 -0.25350398 -0.107236184 -0.291958 -0.09438055 -0.3495775 -0.31884357 0.17270571
-0.15572077 0.3005054 -0.16831636 -0.37578154 -0.09261313 -0.23385952 -0.14937775 -0.48266143
00000000: 6a81 bf3e a7f8 d93e b38b ddbd e82c ed3e
00000010: ef0c f0bd 4f68 be3d 8b9b 80be fd62 923e
00000020: 0940 df3e f1c8 c0be cf6e d93e e7c2 af3d
00000030: 3d61 c13e 95ae 723d 8bcd 6e3e 60a8 9ebd
00000040: e8c6 c03e 95e1 a63d a9d3 65be e14e 0b3e
00000050: e78d 70be 7d25 81bd bf4e 55be 7452 a73e
00000060: 27de c4be b448 69be 091a 15be 28df 9ebe
00000070: abae 6a3d 6014 ffbe 99a3 e33e 047b dcbe
00000080: 05f4 c93e 7b9a be3d 6b1b 27be 3ccf 993e
00000090: 4c22 a03d 889a ce3e 33d0 6c3d cae9 21be
000000a0: eedf 103e e06a 02be c18b 5f3e b3db e03e
000000b0: 59fe 913e 88f7 68be 5cd2 8e3e 1a72 b33d
000000c0: 5aac 863e 9230 98be 22da f8be 2921 4abe
000000d0: e916 c3be 6e95 d43e f5f6 153e 7e63 4a3e
000000e0: c885 2a3e 98c1 20bb 6992 cb3e 693e b2be
000000f0: a925 eb3c 0b60 aebe c0d2 1c3e 894e 36be
00000100: 64ca 173e c162 d9bd edda d13e d180 9abe
00000110: a374 96be 1dbf 96be 1359 e83e 02c6 2e3e
00000120: 36da f13e 1588 d7be c111 01bf e1a3 c6be
00000130: 9917 a7be 7c39 573e f104 423e c792 d23e
00000140: a58d 85be da64 adbe f0bc 893e 72c8 4abe
00000150: 0b8b 9f3e b8bc dfbd bdff 963e dba6 c2be
00000160: 17c9 7ebe 4d59 203e aa7a e13d e5c7 f9bd
00000170: c103 9d3e 7560 b33e 8b8e b4be 1a70 83be
00000180: 1466 e73e 5455 33be 6783 3bbe c97c fabe
00000190: 6bdb 95be 75a1 f43d 3c62 91bd dac7 b6be
000001a0: f075 9a3c e61c aabe 3d03 d7be 7be3 8fbe
000001b0: a799 e2be e37b a5be ff54 fd3e ddf1 b83d
000001c0: 82b5 253e 5668 f0be 4e33 a3be 23bb 25be
000001d0: 8cb8 913d 7903 e5be 3467 5dbe e0ac 95be
000001e0: 502a f23b 34e4 3bbe d32f f0bc b3f7 aebe
000001f0: bda3 afbe 165c 97be 8111 36be 75d5 c8be
00000200: 1f5b d23e cc97 cabd 43e2 e03e 82e9 203e
00000210: edba d6be f2a8 b23e eceb 09be 04d5 46be
00000220: a5cd cfbe 4277 01bf 1efc 0a3e bcfd f1bd
00000230: 313d 4d3e 8679 d2be c2e1 bc3e 4738 b8be
00000240: 2d6d a6bd 9402 e73d fc4a 853e 9afe cc3e
00000250: efb3 e93e 4d8b cabe 8663 023e d5a5 5abe
00000260: 85b1 78bd f218 c1be 1c4d e83e 8b3e babe
00000270: c858 893e 7ed3 3b3e 873d 2f3e f288 86be
00000280: dc3d ec3e 8646 f23d a28b 933d 43c7 ddbe
00000290: 522c 543e 0fe0 a3bd 6eff 6dbe 3b31 d93e
000002a0: ecc4 f73d c3bf 88be 718f 79be f0a7 01bd
000002b0: 2fb8 933e e9de f1bd 5d3c 8dbe c2e5 28be
000002c0: 795b c1be df01 333e c5bc c53e 17c4 f0be
000002d0: 8939 fb3d fdb7 873e d1f9 c13d d795 2ebe
000002e0: 423a 803e 5db3 883e 328d 423e 123a bfbd
000002f0: add1 fcbd b36f 713d 40f5 a8bd c00c 22be
00000300: 5eef 9e3e 2d30 dd3e 00dc 46bd 8003 f6bd
00000310: db77 133c 495e cebc 68c7 ff3d d9a2 0b3e
00000320: 099a ecbe fd33 45be 8077 d33e a958 3f3e
00000330: 9992 7ebc 940c 96be 50f8 97be 7ee2 e9be
00000340: 0821 22be 942e 353e 7126 a83e dede 613e
00000350: 7e50 e5be 57c6 9ebe 670a b4bd b7f4 f23e
00000360: 3b9a 8b3d e3bf 09be 4d43 4e3e 8c4a 48be
00000370: dce3 a0be 0dcf bd3e 8df5 6bbe 1044 e1bd
00000380: 2945 fabe 64c6 af3e bce1 c53e d888 433e
00000390: 6662 b2be e469 fdbe b6d7 d1be f9b9 bd3e
000003a0: ffc0 753e ff9d d33e 2bcb 883e bf73 0b3e
000003b0: ed6c fa3a 699a c0be 03b2 d7be bba2 f2be
000003c0: 98e7 493e 46cb 81be a59e dbbd 857b 95be
000003d0: 974a c1bd d2fb b2be 773f a3be c4d9 303e
000003e0: 4475 1fbe d8db 993e 205b 2cbe 7066 c0be
000003f0: f4ab bdbd df78 6fbe 7bf6 18be 661f f7be

net.0.bias f4 [128]
0.15613039 -0.37759617 -0.31590647 -0.4141386 0.43602422 -0.47231388 0.3770975 -0.016958952
-0.05798065 0.31271604 -0.04645103 0.3120199 0.361151 -0.43373027 0.19136074 0.09528921
0.1068826 0.073306605 0.13723187 -0.24078295 -0.064056635 0.47814047 0.33606103 -0.018519433
-0.47078982 0.02152097 -0.34062415 0.40723568 -0.30348518 -0.035745427 -0.11048029 0.08896861
0.4703801 0.047297522 0.28897658 0.3904122 0.40392128 -0.172824 -0.11218296 0.24052452
-0.13656974 0.23397698 -0.10958176 -0.33812258 0.2041335 0.076637566 0.22282991 0.49642757
0.34160134 0.47601822 0.027359981 -0.42994288 -0.3508056 -0.31068683 -0.44117346 -0.25096297
-0.46112135 -0.46137595 -0.2986295 -0.49309218 -0.3064691 0.1904506 0.41589105 -0.1486787
-0.14645001 0.2651971 -0.24668016 -0.23685215 0.30838433 -0.43518007 0.06100007 0.44089612
0.085575424 0.13587838 -0.29111275 -0.0068710675 0.028314307 0.12275561 0.19377886 0.43458593
-0.38199055 0.014830658 -0.24892356 -0.39529243 -0.040522665 -0.4396442 0.3491648 0.05787692
-0.27109104 0.2614247 -0.47322434 -0.19078223 -0.09692688 -0.4248732 -0.31641376 -0.08149689
0.37980583 0.48219702 0.31807822 -0.2980929 -0.32845333 0.43627736 0.17651618 0.01350114
0.067783274 -0.40283272 -0.16430588 0.48367321 -0.1224641 -0.024693383 -0.41555583 -0.28022835
-0.010100733 -0.30873466 -0.06268201 0.20631659 -0.48976013 0.1484665 -0.33119038 -0.24398385
0.19223899 0.3980084 -0.13676815 -0.20005724 -0.45351145 -0.26019183 -0.4369415 -0.11463421
00000000: a5e0 1f3e 4954 c1be 7ebe a1be f909 d4be
00000010: 913e df3e 20d3 f1be ec12 c13e 80ed 8abc
00000020: 1e7d 6dbd 511c a03e 6f43 3ebd 13c1 9f3e
00000030: c9e8 b83e e511 debe 12f4 433e fd26 c33d
00000040: 44e5 da3d c621 963d 8386 0c3e ce8f 76be
00000050: 2030 83bd d4ce f43e 3110 ac3e 11b6 97bc
00000060: 5d0b f1be bf4c b03c 4a66 aebe 3281 d03e
00000070: 6962 9bbe cc69 12bd 7e43 e2bd 2d35 b63d
00000080: a9d5 f03e 0cbb 413d bdf4 933e 1ce4 c73e
00000090: c5ce ce3e c6f8 30be 2ec0 e5bd 0f4c 763e
000000a0: f0d8 0bbe a997 6f3e 676c e0bd 671e adbe
000000b0: 5f08 513e 28f4 9c3d 862d 643e c12b fe3e
000000c0: 5fe6 ae3e a9b8 f33e 0a22 e03c 7921 dcbe
000000d0: cb9c b3be 5812 9fbe 7de1 e1be 387e 80be
000000e0: 1918 ecbe 7839 ecbe f7e5 98be 9476 fcbe
000000f0: 85e9 9cbe 7b05 433e acef d43e 3b3f 18be
00000100: fef6 15be eac7 873e b999 7cbe 5f89 72be
00000110: 8de4 9d3e eccf debe 36db 793d 23bd e13e
00000120: 2b42 af3d b423 0b3e bb0c 95be b126 e1bb
00000130: 68f3 e73c 4b67 fb3d f76d 463e 0c82 de3e
00000140: 4494 c3be 4afc 723c d1e5 7ebe c563 cabe
00000150: 18fb 25bd 0b19 e1be bbc5 b23e 5910 6d3d
00000160: 72cc 8abe 75d9 853e 764a f2be 6b5c 43be
00000170: 9a81 c6bd fb88 d9be fc00 a2be d7e7 a6bd
00000180: e975 c23e 87e2 f63e 26db a23e a29f 98be
00000190: 092b a8be bf5f df3e a8c0 343e e333 5d3c
000001a0: f5d1 8a3d 1740 cebe cd3f 28be 04a4 f73e
000001b0: 75ce fabd c749 cabc bcc3 d4be 177a 8fbe
000001c0: 8b7d 25bc 7812 9ebe 6d5f 80bd a844 533e
000001d0: d7c1 fabe 9a07 183e c991 a9be e7d6 79be
000001e0: 4cda 443e c2c7 cb3e f30c 0cbe cedb 4cbe
000001f0: a732 e8be dd37 85be ccb6 dfbe 57c5 eabd

net.1.weight f4 [128]
1.0080376 0.99555165 0.99075043 0.99269253 1.0094618 0.9935722 0.9950862 1.0091559
0.9916428 0.99669296 0.99143153 0.99149 1.0095586 0.99435425 0.9913507 0.9930408
0.9960686 0.9978549 1.0069975 1.005944 0.9953871 1.0049607 1.0026742 0.993845
1.0092006 1.0084261 1.0066787 1.0028721 1.0088779 1.0084295 1.0063205 1.0076729
0.9921371 0.9986502 1.0093935 1.0099448 1.0048089 1.0032687 1.0059633 0.99291635
1.0074399 1.0024037 1.0074508 0.99540067 1.0038692 0.9910739 0.99238676 1.0061045
1.0099134 1.0047301 1.0069163 0.997086 0.9937529 1.0076667 0.9984606 0.991752
0.99143904 0.99904627 1.0080074 1.009465 0.993586 1.0087737 1.0053601 0.9910277
0.99121314 0.992772 1.0072026 1.0091767 0.99912006 0.99224913 1.0042872 0.9915746
0.9969624 0.9928772 0.9914808 0.9997788 1.0060977 0.9935364 0.99549377 1.00616
1.0015823 1.0085843 0.99392635 0.99250984 1.0055851 0.99101037 0.9942611 1.0012884
1.0082769 1.0041422 1.0062032 0.99163795 0.99104875 1.0050995 0.991294 1.0062177
0.99684024 1.009064 0.99368614 0.99228936 1.0094607 1.0069556 0.991524 1.0090811
0.9969494 1.0082643 0.98973095 1.0085882 1.0006533 0.9948259 0.99785286 1.0070558
1.0033395 0.99298525 0.99016815 0.99569297 1.0094938 1.0078075 1.0063009 0.99799216
1.0076233 1.0062288 0.9962889 0.9911022 1.008503 1.004769 0.9989981 0.99057794
00000000: 6007 813f 79dc 7e3f d2a1 7d3f 1921 7e3f
00000010: 0b36 813f bf5a 7e3f f8bd 7e3f 052c 813f
00000020: 4ddc 7d3f 4527 7f3f 75ce 7d3f 4ad2 7d3f
00000030: 3739 813f 008e 7e3f 29c9 7d3f ec37 7e3f
00000040: 5afe 7e3f 6b73 7f3f 4be5 803f c6c2 803f
00000050: b0d1 7e3f 8da2 803f a157 803f a06c 7e3f
00000060: 7c2d 813f 1b14 813f d9da 803f 1d5e 803f
00000070: e922 813f 3814 813f 1ccf 803f 6dfb 803f
00000080: b2fc 7d3f 8aa7 7f3f ce33 813f df45 813f
00000090: 949d 803f 1c6b 803f 68c3 803f c42f 7e3f
000000a0: caf3 803f c44e 803f 26f4 803f 94d2 7e3f
000000b0: c97e 803f 05b7 7d3f 0f0d 7e3f 08c8 803f
000000c0: d844 813f ff9a 803f a2e2 803f 0741 7f3f
000000d0: 9766 7e3f 39fb 803f 1d9b 7f3f 76e3 7d3f
000000e0: f3ce 7d3f 7fc1 7f3f 6306 813f 2636 813f
000000f0: a75b 7e3f 7f1f 813f a4af 803f feb3 7d3f
00000100: 25c0 7d3f 4e26 7e3f 04ec 803f b42c 813f
00000110: 55c6 7f3f 0a04 7e3f 7c8c 803f d5d7 7d3f
00000120: ee38 7f3f 332d 7e3f b0d1 7d3f 81f1 7f3f
00000130: cfc7 803f 6758 7e3f aed8 7e3f dac9 803f
00000140: d933 803f 4a19 813f f571 7e3f 2015 7e3f
00000150: 03b7 803f dbb2 7d3f e587 7e3f 382a 803f
00000160: 380f 813f bb87 803f 44cb 803f fcdb 7d3f
00000170: 5fb5 7d3f 1aa7 803f 72c5 7d3f becb 803f
00000180: ec30 7f3f 0229 813f 3762 7e3f ad06 7e3f
00000190: 0236 813f ece3 803f 84d4 7d3f 9229 813f
000001a0: 1338 7f3f ce0e 813f 025f 7d3f 6b19 813f
000001b0: 6815 803f e9ac 7e3f 4973 7f3f 34e7 803f
000001c0: 6e6d 803f 4834 7e3f a97b 7d3f bce5 7e3f
000001d0: 1837 813f d6ff 803f 78ce 803f 6a7c 7f3f
000001e0: cdf9 803f 1bcc 803f ca0c 7f3f e0b8 7d3f
000001f0: a016 813f 459c 803f 57be 7f3f 8496 7d3f

net.1.bias f4 [128]
0.009340632 0.0076854764 -0.009747807 -0.007879722 0.0053341864 -0.0063910475 0.0011409951 0.008844475
-0.00180853 -0.0045101778 0.0015381136 -0.009338892 0.009759115 0.0033917408 -0.0084048 -0.008241993
-0.00085535966 -0.0018233253 0.007081605 0.007280321 -0.0046279393 0.0058815675 -0.0005801223 -0.009598094
0.008817491 0.0076101953 0.009261087 0.0029155682 0.009774422 0.008466333 0.0093038585 0.008670724
-0.002441394 0.0022270323 0.010373045 0.009551882 0.0062301927 -0.00017943945 0.0056327283 -0.005895276
0.007980179 -0.0009536509 0.010928775 -0.0034090735 0.0006484199 -0.009259141 -0.0058556576 0.008941588
0.010346504 0.008955451 0.007155502 0.006515687 0.009697918 0.009446978 0.0018251956 0.0040057623
-0.0091689695 0.0024934926 0.0010045397 0.010052361 -0.007891646 0.008904689 0.0013859791 -0.008881245
-0.008472533 -0.0087102465 0.0090208 0.00964978 0.0020251905 -0.0070659276 0.0051104333 -0.0089765815
-0.0070026554 -0.006545707 -0.008590574 0.002304748 0.006993637 -0.006144408 -0.007503598 0.0076950607
0.003964457 0.009025849 -0.007301952 -0.008454948 0.0053501623 -0.009134657 -0.0045911674 0.0029551766
0.00862403 0.0007737482 0.008446182 -0.0062488704 -0.009522572 0.0030599262 -0.009287237 0.003816279
-0.006806618 0.007421181 -0.008535399 -0.00748669 0.010506589 0.008003169 -0.0066016205 0.009702707
-0.008352265 0.008789741 -0.009715746 -0.008102147 -0.004476869 -0.0054972074 0.0048283017 0.009443591
0.004519856 -0.006481067 -0.00911772 -0.0011595208 0.010195306 0.009077717 0.008313722 -0.0024109746
0.00910341 0.007667708 -0.0073995427 -0.008995974 0.008724787 0.006230236 0.00011986018 -0.009681304
00000000: 7309 193c 73d6 fb3b 44b5 1fbc f319 01bc
00000010: 66ca ae3b fe6b d1bb 718d 953a 6be8 103c
00000020: 320c edba 1dca 93bb 879a c93a 2702 19bc
00000030: b2e4 1f3c f847 5e3b 49b4 09bc 6d09 07bc
00000040: 373a 60ba a5fc eeba cf0c e83b c28f ee3b
00000050: f8a5 97bb 2aba c03b 5913 18ba 5341 1dbc
00000060: 3d77 103c f25e f93b d0bb 173c 1e13 3f3b
00000070: e624 203c 60b6 0a3c 366f 183c a70f 0e3c
00000080: cbff 1fbb 67f3 113b b4f3 293c 7f7f 1c3c
00000090: a526 cc3b e927 3cb9 c092 b83b 292d c1bb
000000a0: 4cbf 023c 6efe 79ba 9b0e 333c c36a 5fbb
000000b0: b9fa 293a a7b3 17bc d1e0 bfbb bd7f 123c
000000c0: 6284 293c e2b9 123c b478 ea3b 8b81 d53b
000000d0: 04e4 1e3c 7fc7 1a3c 673b ef3a c542 833b
000000e0: 7239 16bc dd69 233b c2aa 833a a8b2 243c
000000f0: f64b 01bc f9e4 113c bea9 b53a a482 11bc
00000100: 61d0 0abc 6cb5 0ebc facb 133c 1c1a 1e3c
00000110: 0fb9 043b 4c89 e7bb 6c75 a73b 8312 13bc
00000120: 8876 e5bb 5f7d d6bb 7bbf 0cbc 410b 173b
00000130: e12a e53b 0857 c9bb bee0 f5bb d926 fc3b
00000140: 47e8 813b 28e1 133c 3745 efbb 9f86 0abc
00000150: 6a50 af3b 87a9 15bc 8171 96bb a3ab 413b
00000160: ce4b 0d3c 5dd5 4a3a db61 0a3c 53c3 ccbb
00000170: 9004 1cbc 0b89 483b 7f29 18bc 891a 7a3b
00000180: 0d0a dfbb 612d f33b 0fd8 0bbc e852 f5bb
00000190: d423 2c3c b91f 033c 6852 d8bb 1af8 1e3c
000001a0: f0d7 08bc d902 103c cb2e 1fbc debe 04bc
000001b0: b3b2 92bb eb21 b4bb bb36 9e3b 4bb9 1a3c
000001c0: 4d1b 943b 215f d4bb 7d62 15bc 10fb 97ba
000001d0: 360a 273c b4ba 143c 4736 083c 7101 1ebb
000001e0: 7826 153c 6641 fb3b dd77 f2bb da63 13bc
000001f0: 69f2 0e3c 0227 cc3b 725d fb38 559e 1ebc

net.1.running_mean f4 [128]
0.034138225 -0.26775464 -0.26113626 -0.3157102 0.28061402 -0.326061 0.32741076 0.015919756
-0.08010842 0.20355667 -0.089819625 0.18165256 0.30190253 -0.32649735 0.1281874 0.08417883
0.06947191 0.02972559 0.16136324 -0.20985427 -0.016449587 0.33227038 0.23972185 0.0070322067
-0.2789389 0.062434323 -0.16311711 0.27117956 -0.15679596 0.034646258 -0.03363367 0.14067838
0.2606525 0.06560325 0.24190809 0.2835508 0.22004835 -0.11221146 -0.055684425 0.15674855
-0.08548827 0.13034968 -0.048324462 -0.20505576 0.16691087 0.044508934 0.12350034 0.36513337
0.21398345 0.30497685 0.0022191058 -0.21681446 -0.2848131 -0.21637619 -0.2965993 -0.14642091
-0.35207608 -0.28277466 -0.26682264 -0.24673645 -0.17440693 0.15803927 0.32633355 -0.031161796
-0.13772132 0.17869316 -0.19315706 -0.10867185 0.15725552 -0.2571484 0.08703308 0.3161273
0.06616589 0.14981808 -0.15486659 0.03392807 0.023732144 0.037277453 0.09924982 0.25535008
-0.28966668 0.114646874 -0.17975678 -0.21781988 -0.012682633 -0.23422013 0.25971383 0.014048703
-0.18462522 0.14291091 -0.2726143 -0.11944171 -0.10449297 -0.2250076 -0.22210112 -0.11050823
0.28714752 0.34779736 0.20479742 -0.17577825 -0.23812532 0.38173795 0.15555337 -0.024943028
0.10323471 -0.26809943 -0.08598344 0.3232803 -0.089185245 -0.007024998 -0.32962334 -0.21795501
0.03892596 -0.21676213 -0.033670157 0.15908854 -0.27930576 -0.00065778714 -0.24720918 -0.13770093
0.14192858 0.29074198 -0.16494237 -0.14143722 -0.31254128 -0.20322393 -0.2776238 -0.029267248
00000000: 86d4 0b3d 2317 89be a7b3 85be c4a4 a1be
00000010: a4ac 8f3e 78f1 a6be 62a2 a73e 266a 823c
00000020: e20f a4bd 2971 503e 5af3 b7bd 2103 3a3e
00000030: f892 9a3e a92a a7be 8f43 033e f365 ac3d
00000040: 4a47 8e3d 1583 f33c 683c 253e 0ae4 56be
00000050: 49c1 86bc 581f aa3e a579 753e 6d6e e63b
00000060: 14d1 8ebe 22bb 7f3d 2c08 27be 0cd8 8a3e
00000070: 1f8f 20be 3ce9 0d3d 76c3 09bd fe0d 103e
00000080: 3f74 853e ff5a 863d c1b6 773e 922d 913e
00000090: 5b54 613e 1fcf e5bd 5a15 64bd b182 203e
000000a0: 7914 afbd 637a 053e dfef 45bd 23fa 51be
000000b0: afea 2a3e 004f 363d bfed fc3d c3f2 ba3e
000000c0: 7a1e 5b3e ed25 9c3e 6b6e 113b 9c04 5ebe
000000d0: 06d3 91be b891 5dbe dddb 97be 5def 15be
000000e0: 5143 b4be d7c7 90be fa9c 88be 7ba8 7cbe
000000f0: bb97 32be 0cd5 213e 3115 a73e 0647 ffbc
00000100: d106 0dbe 57fb 363e f7ca 45be 598f debd
00000110: 9707 213e f5a8 83be 663e b23d 70db a13e
00000120: fb81 873d e969 193e 5995 1ebe 29f8 0a3d
00000130: ea69 c23c 3eb0 183d 7d43 cb3d 3fbd 823e
00000140: 314f 94be fbcb ea3d 2912 38be 2d0c 5fbe
00000150: d1ca 4fbc 67d7 6fbe 36f9 843e 882c 663c
00000160: 650e 3dbe 3d57 123e 1a94 8bbe db9d f4bd
00000170: 6900 d6bd 6468 66be 7a6e 63be 2452 e2bd
00000180: 0005 933e 7f12 b23e 6ab6 513e 37ff 33be
00000190: 20d7 73be 2873 c33e 6249 1f3e 5255 ccbc
000001a0: b86c d33d 5444 89be 1618 b0bd ff84 a53e
000001b0: c1a6 b6bd f431 e6bb 64c4 a8be 992f 5fbe
000001c0: d470 1f3d e4f6 5dbe b8e9 09bd 1be8 223e
000001d0: 2a01 8fbe 596f 2cba 6724 7dbe 7901 0dbe
000001e0: ba55 113e 22dc 943e a7e6 28be ebd4 10be
000001f0: 6905 a0be ef19 50be b524 8ebe dec1 efbc

net.1.running_var f4 [128]
1.1233039 0.31750327 0.5101886 0.541847 0.3973802 0.34409836 1.0102139 0.4308517
0.5469062 0.4192771 0.5685962 0.4229678 0.6425611 0.40942088 0.34982517 0.3844483
0.33426875 0.32466224 0.7464896 0.45414075 0.49392384 0.33176807 0.3211883 0.33045328
0.41635206 0.518411 0.9531419 0.3505989 0.715399 0.79584783 0.49852213 1.198635
0.80532026 0.40399557 0.82407653 0.34630075 0.594905 0.32163176 0.39079773 0.4064414
0.3675191 0.37487164 0.4329718 0.36670506 0.36004043 0.38158286 0.56332487 0.3697256
0.54779345 0.34824267 0.33110544 1.0045587 0.5074296 0.43452272 0.31650737 0.35859704
0.4316583 0.8514888 1.0098125 1.3018024 0.437232 0.5519769 0.39680013 0.86370885
0.4071141 0.32348135 0.5342442 0.70032674 1.0002254 0.46228832 0.6180734 0.4562589
0.32492468 0.973767 0.5982714 0.4646154 0.32078147 0.49139607 0.40546235 0.78719527
0.33727464 1.7893074 0.32568198 0.81448543 0.32206005 0.754156 0.43550915 0.34848338
0.34869513 0.42322984 0.82536495 0.32809427 0.37812608 0.8802911 0.4111747 0.5129848
0.3281674 0.3270571 0.47753808 0.42585564 0.3587948 1.340567 0.42141256 0.7027605
0.58676416 0.3740286 0.33545744 0.32441312 0.31875592 0.3442643 0.53511333 0.36463168
0.4816548 0.3218317 0.3311815 0.32348996 0.65031064 1.9955167 0.3673157 0.5981759
0.33245495 0.44100127 1.3181001 0.31758365 0.4014612 0.32756564 0.32920337 0.5330474
00000000: 6cc8 8f3f ca8f a23e b89b 023f 7cb6 0a3f
00000010: 6b75 cb3e a92d b03e b04e 813f 9898 dc3e
00000020: 0b02 0c3f 7dab d63e 858f 113f 3c8f d83e
00000030: e27e 243f 9d9f d13e 491c b33e 68d6 c43e
00000040: 4625 ab3e 213a a63e f119 3f3f 2385 e83e
00000050: 96e3 fc3e 81dd a93e cb72 a43e 2c31 a93e
00000060: 192c d53e 95b6 043f 1c01 743f b381 b33e
00000070: 6424 373f afbc 4b3f 4b3e ff3e df6c 993f
00000080: 7829 4e3f 82d8 ce3e aef6 523f 554e b13e
00000090: b24b 183f ebac a43e a416 c83e 1619 d03e
000000a0: 772b bc3e 2def bf3e 7bae dd3e c4c0 bb3e
000000b0: 3857 b83e d45e c33e 0f36 103f ad4c bd3e
000000c0: 313c 0c3f dd4c b23e a786 a93e 6195 803f
000000d0: e8e6 013f c379 de3e 410d a23e 089a b73e
000000e0: 5102 dd3e 2cfb 593f 8941 813f 76a1 a63f
000000f0: dfdc df3e 5c4e 0d3f 6329 cb3e 061c 5d3f
00000100: 4271 d03e 599f a53e 3ac4 083f 9d48 333f
00000110: 6307 803f 0eb1 ec3e 0f3a 1e3f c49a e93e
00000120: 875c a63e cb48 793f 5128 193f 12e2 ed3e
00000130: 783d a43e 4498 fb3e c398 cf3e a185 493f
00000140: 43af ac3e 0608 e53f cabf a63e 1e82 503f
00000150: 0ee5 a43e 5e10 413f 0efb de3e 6a6c b23e
00000160: 2b88 b23e 95b1 d83e 1e4b 533f f9fb a73e
00000170: be99 c13e c25a 613f 7e85 d23e f952 033f
00000180: 8f05 a83e 0774 a73e df7f f43e c009 da3e
00000190: f4b3 b73e b397 ab3f 63c3 d73e 1de8 333f
000001a0: 2d36 163f ad80 bf3e 14c1 ab3e 7a19 a63e
000001b0: fa33 a33e 6943 b03e 30fd 083f 01b1 ba3e
000001c0: 759b f63e 20c7 a43e 9f90 a93e 7aa0 a53e
000001d0: c27a 263f 176d ff3f ce10 bc3e 0e22 193f
000001e0: 8937 aa3e ebca e13e 81b7 a83f 539a a23e
000001f0: 538c cd3e afb6 a73e 588d a83e cb75 083f

net.4.weight f4 [64, 128]
0.026746666 -0.09015523 0.08495025 0.064600065 -0.07824727 -0.050376423 0.020719655 -0.02693922
-0.0014630688 -0.030355008 0.07878131 -0.04493394 0.06340284 0.013492845 0.026864043 0.059517637
-0.004942975 -0.051649373 -0.024030445 0.075823545 -0.07411759 0.02596296 -0.09489407 0.05530488
0.02261869 -0.005461363 0.029350588 -0.008851409 0.038841005 -0.079306975 -0.021666912 0.03088204
0.09762666 0.037034024 -0.07278792 0.058823384 -0.01538895 -0.022961484 -0.08925183 -0.0050327145
0.07196085 0.018077578 -0.05999353 0.016917726 -0.037891664 0.08992338 -0.06692569 -0.03659523
-0.07619679 -0.025170125 0.02532804 0.0760802 0.022198604 0.07750223 0.014714849 0.041920375
0.07791849 0.064125836 -0.040411636 0.072747365 0.043861452 -0.046840075 -0.0510962 -0.08328796
0.026923284 -0.064631045 0.047046725 0.018576825 -0.06847727 0.014935792 -0.016430946 0.0324847
0.058489777 -0.09625743 0.0732032 0.06530855 0.027563673 -0.07341466 -0.026579864 -0.017206276
-0.020177446 0.040791024 0.024407538 0.060173843 -0.04123893 0.020582736 0.022055583 -0.072003454
-0.076408796 -0.038515035 0.05031335 -0.07435365 -0.074992545 0.04088163 0.05636299 0.07961216
-0.07131104 -0.07367037 0.054108277 0.06841067 0.06161255 0.005396709 0.02001709 0.092364274
-0.066087246 -0.049027026 0.06614377 -0.05180284 -0.0521256 0.056322742 0.036181375 0.036388792
-0.046915933 -0.0061262944 0.09068088 -0.05233661 -0.007833307 0.0499823 -0.052796274 0.07760271
-0.05495171 -0.029797107 -0.015115317 -0.048354838 -0.07732633 0.051273707 0.031117355 -0.09161377
-0.059336126 0.08810486 0.030432554 0.03410989 -0.05888639 -0.044725034 -0.01672623 -0.013793909
-0.062345214 0.0037601977 0.007851678 -0.017164638 0.016648732 -0.04233507 0.018894171 0.0349794
-0.053627674 -0.0897848 0.05325163 0.020007843 -0.0502487 0.08329019 -0.04515964 0.060931213
0.050508305 -0.073993556 0.056377362 -0.08243086 -0.052407492 -0.015725864 -0.061824985 0.08203459
-0.016908685 0.030165883 -0.0834049 0.057743363 -0.029817078 -0.060861647 0.012135398 0.036865193
0.0793626 -0.056260277 -0.04565942 0.024092253 0.02545769 0.026600469 0.04722203 -0.022022473
0.04281173 0.062549405 -0.030415729 0.06278552 0.04077485 0.07409204 -0.04471303 -0.047252182
-0.026475938 -0.00083344633 0.046093665 -0.055297974 0.046209183 -0.035772126 0.048862573 -0.00570073
-0.0792848 -0.0430354 -0.0707241 0.040839862 -0.06296743 -0.010956506 0.014979194 -0.053873125
0.029888416 -0.088850014 -0.0681357 -0.08301134 -0.028143365 -0.039284475 0.010449764 -0.02042306
0.03378666 0.0758368 0.026728688 -0.038874213 -0.08869164 0.036291268 -0.04586926 0.046123892
0.05571207 0.03170043 0.08178145 0.08590909 0.018154288 -0.06801033 0.07398417 -0.041668087
-0.042322565 0.08105866 0.062555514 0.022140691 0.0011341487 -0.07846767 -0.01341477 0.08340025
0.018840063 0.0018032454 -0.01432977 -0.033429336 0.045469865 0.004441816 0.054085717 -0.014252812
0.04482406 0.030694732 0.008178921 0.06246012 0.054885752 0.07412829 0.07140278 -0.027316794
-0.072885655 0.013026513 -0.002767752 -0.023571782 -0.020997712 0.0009207201 0.06484797 0.025118023
00000000: d31b db3c 4ea3 b8bd 66fa ad3d 0a4d 843d
00000010: 1b40 a0bd 8257 4ebd 44bc a93c a4af dcbc
00000020: 71c4 bfba 11ab f8bc 1858 a13d a70c 38bd
00000030: 59d9 813d 1811 5d3c fb11 dc3c c4c8 733d
00000040: aef8 a1bb 4b8e 53bd 7fdb c4bc 6049 9b3d
00000050: f7ca 97bd 46b0 d43c d257 c2bd 5f87 623d
00000060: d54a b93c 3cf5 b2bb a570 f03c 8005 11bc
00000070: bf17 1f3d b26b a2bd cf7e b1bc 55fc fc3c
00000080: 7cf0 c73d fdb0 173d d511 95bd caf0 703d
00000090: ef21 7cbc b919 bcbc aac9 b6bd 78e9 a4bb
000000a0: 3660 933d 6e17 943c c7bb 75bd 0b97 8a3c
000000b0: 4a34 1bbd c029 b83d 5610 89bd e1e4 15bd
000000c0: 100d 9cbd 9431 cebc c07c cf3c f0cf 9b3d
000000d0: d9d9 b53c 7db9 9e3d 8d16 713c b3b4 2b3d
000000e0: bb93 9f3d 6854 833d ac86 25bd 92fc 943d
000000f0: 11a8 333d 61db 3fbd 404a 51bd e192 aabd
00000100: 388e dc3c 485d 84bd 11b4 403d 6d2e 983c
00000110: d03d 8cbd 41b5 743c 319a 86bc ad0e 053d
00000120: fa92 6f3d 9e22 c5bd 8feb 953d 7dc0 853d
00000130: 36cd e13c 6d5a 96bd 04be d9bc 2df4 8cbc
00000140: 2c4b a5bc 7d14 273d 51f2 c73c d978 763d
00000150: 27ea 28bd 209d a83c e9ad b43c 8c76 93bd
00000160: 377c 9cbd f1c1 1dbd 5f15 4e3d ba46 98bd
00000170: b195 99bd 7f73 273d e1dc 663d b30b a33d
00000180: 860b 92bd 7ee0 96bd a4a0 5d3d e51a 8c3d
00000190: 715d 7c3d e0d6 b03b e1fa a33c 7b29 bd3d
000001a0: c058 87bd 90d0 48bd 6376 873d 372f 54bd
000001b0: a781 55bd adb2 663d ec32 143d 6a0c 153d
000001c0: ec2a 40bd 15bf c8bb e6b6 b93d ea5e 56bd
000001d0: 4557 00bc 3dba 4c3d e840 58bd 2bee 9e3d
000001e0: 0b15 61bd 1019 f4bc 3ca6 77bc b90f 46bd
000001f0: 445d 9ebd 6104 523d d3e9 fe3c 00a0 bbbd
00000200: 700a 73bd 5270 b43d b14d f93c d0b6 0b3d
00000210: db32 71bd 9931 37bd 7205 89bc d9ff 61bc
00000220: b25d 7fbd a66d 763b 53a4 003c db9c 8cbc
00000230: ec62 883c 8a67 2dbd f3c7 9a3c 8f46 0f3d
00000240: b1a8 5bbd 18e1 b7bd 621e 5a3d 7de7 a33c
00000250: 95d1 4dbd 0c94 aa3d 51f9 38bd 0293 793d
00000260: cce1 4e3d ef89 97bd f3eb 663d 83d1 a8bd
00000270: 3da9 56bd 87d3 80bc 323c 7dbd c001 a83d
00000280: 1584 8abc 711e f73c 30d0 aabd 4e84 6c3d
00000290: f242 f4bc 104a 79bd 8cd3 463c f5ff 163d
000002a0: dc88 a23d 2d71 66bd 5f05 3bbd 1e5d c53c
000002b0: a58c d03c 3ae9 d93c e36b 413d 7968 b4bc
000002c0: 5a5b 2f3d e719 803d 682a f9bc b295 803d
000002d0: 8703 273d 91bd 973d 0325 37bd 818b 41bd
000002e0: 11e4 d8bc a37b 5aba b6cc 3c3d 2180 62bd
000002f0: d745 3d3d cb85 12bd 1f24 483d 30cd babb
00000300: 1260 a2bd e345 30bd ccd7 90bd b347 273d
00000310: 11f5 80bd eb82 33bc 4b6b 753c 11aa 5cbd
00000320: 8dd8 f43c fff6 b5bd bb8a 8bbd d901 aabd
00000330: ea8c e6bc c2e8 20bd 7d35 2b3c 434e a7bc
00000340: e163 0a3d 5350 9b3d 1ff6 da3c 913a 1fbd
00000350: f6a3 b5bd 27a6 143d 68e1 3bbd 68ec 3c3d
00000360: 5732 643d 4fd8 013d 087d a73d 1bf1 af3d
00000370: 4db8 943c 0049 8bbd 0385 973d 28ac 2abd
00000380: 6d5a 2dbd 1502 a63d 1b1d 803d 6560 b53c
00000390: b7a7 943a a8b3 a0bd a0c9 5bbc c0cd aa3d
000003a0: 7a56 9a3c e05a ec3a 69c7 6abc 33ed 08bd
000003b0: 9c3e 3a3d a78c 913b fc88 5d3d a084 69bc
000003c0: 6f99 373d 8573 fb3c e200 063c 2fd6 7f3d
000003d0: e2cf 603d 93d0 973d 9f3b 923d 78c7 dfbc
000003e0: 1345 95bd 286d 553c 2c63 35bb 9c19 c1bc
000003f0: 6503 acbc 7b5c 713a 03cf 843d 50c4 cd3c

net.4.bias f4 [64]
-0.025869396 -0.059943438 -0.06305805 -0.021382792 0.0628134 0.03275407 -0.029703103 -0.076910295
-0.053205855 0.018736647 0.07483441 0.045345914 -0.011549706 0.047200266 0.006031461 0.011768488
0.041412976 -0.02095402 0.026258875 0.007066102 0.026891561 -0.018827515 0.05686425 -0.08060852
0.05949527 -0.07338424 -0.05830132 -0.054346893 -0.008814073 -0.008712991 -0.086096756 0.04748751
0.023527939 0.087696604 -0.062315624 -0.07104437 0.021800874 0.067339435 0.059462048 0.037325233
0.014426587 0.044226717 -0.03423203 -0.08719052 -0.07245191 -0.056385186 0.020987375 0.07912653
0.057155695 -0.056955848 0.023246232 0.07804721 0.0027934604 -0.01602291 -0.047316413 -0.0057065347
0.06552128 -0.023956249 -0.01363958 0.04315665 -0.03323966 -0.040899046 0.014337344 0.06379814
00000000: 0eec d3bc 4087 75bd 9424 81bd f72a afbc
00000010: 50a4 803d 2229 063d ec53 f3bc 2583 9dbd
00000020: 62ee 59bd 997d 993c c842 993d a3bc 393d
00000030: fa3a 3dbc 1155 413d 90a3 c53b 9ed0 403c
00000040: a7a0 293d c4a7 abbc da1c d73c c38a e73b
00000050: b14b dc3c 293c 9abc 7dea 683d 1416 a5bd
00000060: 50b1 733d 7a4a 96bd 5dcd 6ebd d99a 5ebd
00000070: e768 10bc efc0 0ebc 7f53 b0bd 4382 423d
00000080: aabd c03c 479a b33d ab3e 7fbd b67f 91bd
00000090: bf97 b23c 42e9 893d 7a8e 733d 58e2 183d
000000a0: 7e5d 6c3c 1327 353d e336 0cbd f190 b2bd
000000b0: ab61 94bd 27f4 66bd b7ed ab3c 170d a23d
000000c0: 171c 6a3d 894a 69bd e26e be3c 37d7 9f3d
000000d0: 7d12 373b 7a42 83bc dbce 41bd e2fd babb
000000e0: 0530 863d e53f c4bc 8c78 5fbc 07c5 303d
000000f0: 4f26 08bd c285 27bd 2ee7 6a3c 99a8 823d

net.5.weight f4 [64]
0.991697 0.99327856 1.0097084 0.9991275 1.0064042 1.0027692 0.99488175 1.0103847
1.0002031 0.99038243 0.9947062 1.0037864 1.0107988 1.0103543 1.0102358 0.99050665
1.0093296 0.9928728 1.0017136 1.010582 0.99462646 1.010382 1.0100455 1.0107993
0.9978639 1.007968 1.0080562 0.9903871 1.0041307 1.0092883 1.0028385 1.010689
1.0097705 1.0103793 1.010421 1.0108672 1.0073776 1.0101925 1.0108147 1.0043753
0.9907008 0.9898899 0.99141043 1.0043495 0.9987767 1.0072742 1.0096695 1.0088974
1.0101581 0.9956337 1.0099669 1.0063474 0.9911911 1.0031956 0.9927686 0.99411523
1.0107026 0.99011236 1.0108335 1.0106694 1.0033678 0.99956703 1.0025543 1.0104629
00000000: dbdf 7d3f 8147 7e3f 203e 813f d2c6 7f3f
00000010: dad1 803f be5a 803f 92b0 7e3f 4954 813f
00000020: a806 803f b489 7d3f 11a5 7e3f 137c 803f
00000030: db61 813f 4a53 813f 684f 813f d891 7d3f
00000040: b631 813f e92c 7e3f 2738 803f c05a 813f
00000050: d79f 7e3f 3354 813f 2c49 813f df61 813f
00000060: 0274 7f3f 1805 813f fc07 813f 028a 7d3f
00000070: 5b87 803f 5c30 813f 035d 803f 425e 813f
00000080: 2940 813f 1c54 813f 7a55 813f 1964 813f
00000090: c0f1 803f fd4d 813f 6062 813f 5f8f 803f
000000a0: 919e 7d3f 6d69 7d3f 13cd 7d3f 868e 803f
000000b0: d4af 7f3f 5cee 803f da3c 813f 8d23 813f
000000c0: dc4c 813f dae1 7e3f 9846 813f fecf 803f
000000d0: b3be 7d3f b768 803f 1526 7e3f 567e 7e3f
000000e0: b45e 813f 0178 7d3f fe62 813f 9d5d 813f
000000f0: 5b6e 803f a0e3 7f3f b353 803f d956 813f

net.5.bias f4 [64]
-0.006776161 -0.006941096 0.009464047 -0.002154914 0.0023284045 0.0055829696 -0.006169114 0.010609359
0.008110683 -0.009122424 -0.006266374 0.0039529856 0.010718473 0.009948305 0.010538699 -0.00999998
0.009659593 -0.009127374 -0.0060117645 0.009953281 -0.0004549676 0.010433666 0.010556566 0.010346781
0.0030498987 0.007309158 0.008769938 -0.008828812 0.007551112 0.0052489154 0.0039073937 0.007966037
0.010296226 0.010706643 0.010497668 0.0105820745 0.009684308 0.010252969 0.0102329375 0.0060399305
-0.009242308 -0.010178831 -0.0063273953 0.0021563163 -0.0038203085 0.009435695 0.009640769 0.009147122
0.010049891 -0.00068096677 0.01042353 0.0076658134 -0.00894577 0.008091864 -0.0036328398 -0.00085159636
0.010784198 -0.009951247 0.0108029805 0.010528947 0.010805257 -2.1621048e-05 0.0065366677 0.010930962
00000000: 8f0a debb 2272 e3bb 170f 1b3c 7539 0dbb
00000010: 2598 183b 58f1 b63b 4726 cabb e0d2 2d3c
00000020: ace2 043c 3876 15bc 2856 cdbb 0c88 813b
00000030: 899c 2f3c 37fe 223c 82aa 2c3c f5d6 23bc
00000040: 4543 1e3c fb8a 15bc 56fe c4bb 1613 233c
00000050: b888 eeb9 f8f1 2a3c 72f5 2c3c 8c85 293c
00000060: cfe0 473b a981 ef3b c9af 0f3c b9a6 10bc
00000070: 526f f73b 18ff ab3b 9809 803b fb83 023c
00000080: 80b1 283c ea6a 2f3c 69fe 2b3c 7060 2d3c
00000090: efaa 1e3c 12fc 273c 0da8 273c 9cea c53b
000000a0: 0d6d 17bc 1dc5 26bc 0a56 cfbb fc50 0d3b
000000b0: 245e 7abb 2c98 1a3c 51f4 1d3c cfdd 153c
000000c0: 4ca8 243c e882 32ba 74c7 2a3c 8131 fb3b
000000d0: 4791 12bc bd93 043c f014 6ebb aa3d 5fba
000000e0: 34b0 303c 8e0a 23bc fcfe 303c 9b81 2c3c
000000f0: 8808 313c d95e b5b7 8b31 d63b c717 333c

net.5.running_mean f4 [64]
0.05431251 0.05101385 -0.26434353 0.024663053 0.20858425 -0.0072556357 0.0845311 -0.10411588
0.15461865 -0.034723677 -0.26282516 0.38203892 -0.38243952 -0.17580065 0.16316848 -0.038689423
0.1773882 0.055135313 0.06161794 -0.015533555 0.0013997611 -0.15445039 -0.13477275 -0.16069591
0.12394753 0.017390542 0.14320803 -0.10520177 0.10184013 -0.4461693 -0.21975932 0.27024472
0.105428584 0.10337525 0.34319934 0.1538404 0.12199016 -0.05438011 0.39680293 0.043906443
0.14006692 -0.18304943 -0.26314244 -0.28749666 -0.0075263474 0.18493485 0.14545749 0.31774554
-0.07733473 -0.006675823 -0.083456255 -0.038593564 0.009036572 0.23368344 -0.20816919 -0.30214748
-0.0114254495 -0.22204974 -0.023472764 0.16865356 0.20426281 -0.09783362 0.036086876 0.045822848
00000000: cb76 5e3d e6f3 503d 0958 87be 2c0a ca3c
00000010: 1c97 553e afc0 edbb a41e ad3d b53a d5bd
00000020: 5a54 1e3e 6a3a 0ebd 0591 86be 9b9a c33e
00000030: 1dcf c3be 1605 34be a315 273e cd78 1ebd
00000040: 41a5 353e 91d5 613d 1863 7c3d 7480 7ebc
00000050: 3078 b73a 3e28 1ebe de01 0abe 788d 24be
00000060: 34d8 fd3d 9c76 8e3c 20a5 123e 0774 d7bd
00000070: 8f91 d03d 4d70 e4be 9608 61be 845d 8a3e
00000080: f1ea d73d 67b6 d33d d3b7 af3e 5688 1d3e
00000090: fad5 f93d aebd 5ebd c129 cb3e 3ed7 333d
000000a0: b46d 0f3e 4f71 3bbe 9bba 86be c332 93be
000000b0: 949f f6bb 905f 3d3e cff2 143e 8baf a23e
000000c0: ac61 9ebd ddc0 dabb 1deb aabd 4914 1ebd
000000d0: 210e 143c b64a 6f3e 4e2a 55be 13b3 9abe
000000e0: cf31 3bbc 0261 63be f449 c0bc 85b3 2c3e
000000f0: 452a 513e fe5c c8bd d5cf 133d bdb0 3b3d

net.5.running_var f4 [64]
0.37073618 0.48053232 0.55896676 0.43012625 0.40211722 0.40135264 0.40571314 0.50702935
0.4500679 0.40685067 0.4057883 0.41594878 0.66154194 0.4803587 0.41976053 0.39918637
0.67036223 0.4069307 0.46425608 0.41460022 0.41446957 0.54389787 0.48442417 0.43289876
0.39131147 0.6084884 0.43457788 0.38682437 0.41994217 0.5239964 0.39292365 0.50272334
0.5268141 0.5293843 0.44730946 0.68281806 0.43926755 0.4133204 0.53439105 0.41574365
0.4407865 0.4595075 0.39433232 0.44179377 0.39871916 0.57076865 0.6853004 0.47743815
0.44620636 0.39100024 0.4552227 0.42602602 0.36660257 0.44208312 0.39629325 0.44849896
0.4494558 0.50710666 0.46056277 0.43766674 0.44958398 0.39443725 0.4328358 0.46800238
00000000: 22d1 bd3e 5508 f63e 7218 0f3f 8239 dc3e
00000010: 4fe2 cd3e 187e cd3e a2b9 cf3e adcc 013f
00000020: 4d6f e63e bb4e d03e 7cc3 cf3e 3df7 d43e
00000030: d05a 293f 93f1 f53e daea d63e 2862 cc3e
00000040: dc9c 2b3f 3959 d03e f9b2 ed3e 7b46 d43e
00000050: 5b35 d43e e43c 0b3f 7206 f83e e8a4 dd3e
00000060: fa59 c83e e5c5 1b3f fe80 de3e d80d c63e
00000070: a902 d73e a124 063f 4a2d c93e 7ab2 003f
00000080: 4add 063f bb85 073f bf05 e53e 2acd 2e3f
00000090: ade7 e03e bb9e d33e dacd 083f 5adc d43e
000000a0: c5ae e13e 9144 eb3e ede5 c93e cb32 e23e
000000b0: eb24 cc3e e51d 123f d96f 2f3f c672 f43e
000000c0: 2975 e43e 2f31 c83e f312 e93e 1520 da3e
000000d0: 55b3 bb3e b858 e23e f3e6 ca3e a8a1 e53e
000000e0: 121f e63e bed1 013f e2ce eb3e db15 e03e
000000f0: df2f e63e aef3 c93e a79c dd3e 029e ef3e

net.8.weight f4 [1, 64]
0.004881908 0.0046750694 -0.1089408 0.07384244 0.01182412 -0.05784227 -0.10491562 -0.069599725
-0.08810218 0.015725484 0.08632844 -0.02852052 0.08683797 -0.036682766 -0.06963837 -0.1048649
-0.09301473 0.08673441 0.08594431 0.1311513 -0.0076497532 0.052564908 -0.025279598 0.13449869
-0.097577706 -0.041867297 -0.12790269 0.002036822 -0.101460524 -0.09692752 0.03179948 0.13505496
0.11390963 0.096201435 -0.04118912 -0.013866625 -0.11973801 0.094158 0.04488057 0.11047566
-0.11217803 -0.020156894 -0.071862176 -0.10000327 -0.07313774 0.046681505 0.09270249 0.065283395
-0.052968953 0.050786696 0.13305482 0.012094302 -0.03610158 -0.10191555 0.081108116 -0.022904506
-0.10874213 0.062295906 0.035660125 -0.06110393 -0.12644458 0.015632123 -0.03961835 -0.03188983
00000000: 6af8 9f3b 5331 993b 5b1c dfbd b53a 973d
00000010: f4b9 413c 04ec 6cbd 00de d6bd 4d8a 8ebd
00000020: ea6e b4bd bbd2 803c f7cc b03d dea3 e9bc
00000030: 1bd8 b13d ab40 16bd 909e 8ebd 69c3 d6bd
00000040: 827e bebd cfa1 b13d 9203 b03d 874c 063e
00000050: c8aa fabb 4d4e 573d 2917 cfbc 06ba 093e
00000060: d2d6 c7bd 0b7d 2bbd ecf8 02be 347c 053b
00000070: 89ca cfbd f081 c6bd 2c40 023d d94b 0a3e
00000080: 7449 e93d 4205 c53d ecb5 28bd d730 63bc
00000090: 3439 f5bd e9d5 c03d b0d4 373d 1041 e23d
000000a0: 98bd e5bd 1220 a5bc 7a2c 93bd 84ce ccbd
000000b0: 3dc9 95bd 1b35 3f3d ceda bd3d 4db3 853d
000000c0: f9f5 58bd b605 503d 863f 083e 2e27 463c
000000d0: 40df 13bd 1ab9 d0bd 031c a63d 3ba2 bbbc
000000e0: 32b4 debd fe29 7f3d 5a10 123d 1d48 7abd
000000f0: b07a 01be f00e 803c da46 22bd e99e 02bd
